model/Adam_batch_size=2048_epoch=300.pt (torch, 211068 bytes, 10 tensors)

lstm.weight_ih_l0 f4 [256, 1]
0.24184403 -0.0024309636 0.093009345 0.2642713 -0.19814391 0.007066365 0.06767094 -0.13225688
-0.08269755 0.047805466 0.09496351 0.07904538 0.1326471 0.056921206 0.059891656 -0.050121002
0.21791285 0.009801939 -0.05734819 0.15874566 0.011758797 -0.027094752 0.010202572 0.20600957
-0.00038227948 0.18432361 -0.23303203 0.06595732 -0.1379391 -0.055200007 -0.11611837 0.39497215
0.07718164 0.07322004 0.1403412 -0.115009926 0.14173116 -0.07270549 -0.077997714 0.051879313
0.09384078 0.046496525 0.31615606 0.059506588 0.08011806 0.027802901 0.09631472 0.35444018
-0.20357578 0.11404093 0.09969574 0.049373288 -0.13778023 0.2588923 0.3301791 -0.04382431
-0.074724294 -0.03122486 0.106769696 0.064008266 -0.055429883 0.048932314 0.015294989 0.009898945
-0.0071551767 0.08012458 0.066697106 -0.22136432 -0.1594095 -0.004919358 -0.14816613 -0.07830419
0.2660868 0.11889828 0.020107737 0.18869029 -0.0049699727 0.10817053 0.08063305 0.030506028
0.32455793 0.059120487 0.032036453 0.093291566 0.0702892 0.07077394 0.13707839 0.038170293
0.14842002 0.23027241 0.017523834 0.10523562 -0.022699261 -0.03437086 -0.058700997 0.12555325
0.29208738 0.2696119 0.1471168 -0.15370119 0.08629731 0.12284279 0.25536358 0.5042667
0.08669243 0.065944545 0.097175755 0.089883015 0.120739155 0.047145378 0.027878026 0.2272736
0.12232076 0.05256692 -0.035185963 -0.1304555 0.23527738 0.049118843 0.08127541 0.15123257
-0.030369723 -0.012107175 0.116865486 0.021276614 0.16527045 0.05763786 0.05913529 0.10979661
-0.12855865 -0.13467775 -0.03680149 -0.15904538 -0.2684725 -0.24546193 -0.04919824 -0.23816733
0.17207447 -0.025602235 -0.04107546 -0.27002478 0.23811589 -0.019760462 0.05759521 0.21624362
-0.19375454 -0.074499264 -0.058413744 0.063386045 -0.15614626 0.21727349 -0.080288775 -0.15312198
0.25775596 0.24509203 -0.76912415 0.42199796 -0.20539899 0.20534813 0.18619382 -0.053919025
0.0451617 0.035621263 -0.046264373 -0.3922083 -0.19252464 0.3156443 -0.08887268 -0.26256216
0.03990049 0.067292176 -0.14083 0.016185476 -0.03560707 0.16653074 -0.21708483 -0.39581898
-0.27827483 0.16067514 -0.052857865 -0.06800284 -0.13371663 -0.07286642 -1.7064537 -0.002716415
0.11767424 0.085184656 -0.06256388 -0.02102488 -0.10430189 0.15452594 -0.20111108 -0.0031627927
0.26571965 -0.2305614 0.29357624 -0.24834591 0.25974903 -0.15577294 0.41697195 0.17394964
0.5063943 0.21529143 0.14693001 -0.13758703 -0.054883413 0.041890137 0.1852612 0.19551332
0.8242953 0.034339186 0.20580095 -0.23169099 0.04183667 0.032594766 -0.07018924 -0.1361968
0.12079104 -0.10143855 -0.05552643 -0.23375885 -0.21554194 0.060487323 0.27620336 0.05451546
0.26582778 0.33441442 0.47672686 0.014854185 0.106799886 0.18866867 0.1944271 -0.17738414
-0.031855267 -0.21793436 0.21214193 0.10102443 0.13534717 0.10261423 -0.19493699 -0.23260191
-0.27605814 0.21994722 0.12084177 0.0363874 0.24827477 0.403589 -0.25596234 0.09468275
0.020380877 -0.23011324 0.24860068 0.09175241 0.13289823 0.024428844 0.33927238 -0.19301216
00000000: f6a5 773e cd50 1fbb af7b be3d 914e 873e
00000010: 3de6 4abe f78c e73b 1097 8a3d 596e 07be
00000020: 555d a9bd aacf 433d 3b7c c23d 8be2 a13d
00000030: a4d4 073e 3626 693d f450 753d ae4b 4dbd
00000040: 8c24 5f3e 5098 203c f0e5 6abd 398e 223e
00000050: f8a7 403c d0f5 ddbc b028 273c 2cf4 523e
00000060: af6c c8b9 54bf 3c3e f39f 6ebe a214 873d
00000070: e83f 0dbe 6719 62bd 78cf edbd ca39 ca3e
00000080: 6811 9e3d 63f4 953d 9bb5 0f3e 538a ebbd
00000090: f921 113e 9ee6 94bd 44bd 9fbd 677f 543d
000000a0: 982f c03d 2473 3e3d 35df a13e 2ebd 733d
000000b0: f014 a43d e9c2 e33c a740 c53d 2f79 b53e
000000c0: 2b76 50be 4b8e e93d 482d cc3d a53b 4a3d
000000d0: 4316 0dbe 888d 843e 3c0d a93e 1f81 33bd
000000e0: 0d09 99bd 47cb ffbc 12aa da3d c416 833d
000000f0: 720a 63bd 406d 483d d597 7a3c 2f2f 223c
00000100: f975 eabb 5b18 a43d 7e98 883d 54ad 62be
00000110: 3e3c 23be 9132 a1bb ddb8 17be f25d a0bd
00000120: 873c 883e f180 f33d fbb8 a43c 0738 413e
00000130: 27db a2bb 8388 dd3d f122 a53d c7e7 f93c
00000140: 752c a63e 5328 723d a838 033d a60f bf3d
00000150: c9f3 8f3d edf1 903d 475e 0c3e 7458 1c3d
00000160: 6bfb 173e 88cc 6b3e 258e 8f3c c685 d73d
00000170: cdf3 b9bc 75c8 0cbd 7570 70bd 0891 003e
00000180: 7a8c 953e 920a 8a3e c9a5 163e d863 1dbe
00000190: a5bc b03d 0095 fb3d 04bf 823e 9f17 013f
000001a0: cd8b b13d ef0d 873d 1504 c73d 9614 b83d
000001b0: 1746 f73d 831b 413d 7560 e43c 69ba 683e
000001c0: 4e83 fa3d 6950 573d 281f 10bd 2096 05be
000001d0: 8eec 703e d730 493d b973 a63d b6dc 1a3e
000001e0: edc9 f8bc 2c5d 46bc 2c57 ef3d 4b4c ae3c
000001f0: a83c 293e ad15 6c3d d937 723d 0cdd e03d
00000200: e1a4 03be f7e8 09be 29bd 16bd cbdc 22be
00000210: 3a75 89be 5f5a 7bbe 1884 49bd 23e2 73be
00000220: 4a34 303e c7bb d1bc be3e 28bd b040 8abe
00000230: a7d4 733e b1e0 a1bc f4e8 6b3d f86e 5d3e
00000240: 9767 46be 1293 98bd 4043 6fbd 8bd0 813d
00000250: cee4 1fbe f17c 5e3e 716e a4bd 02cc 1cbe
00000260: 97f8 833e 68f9 7a3e 52e5 44bf 1e10 d83e
00000270: 1d54 52be c846 523e 98a9 3e3e 32da 5cbd
00000280: 7afb 383d 9ae7 113d b67f 3dbd 87cf c8be
00000290: 2e25 45be 219c a13e e102 b6bd 8c6e 86be
000002a0: b26e 233d 7bd0 893d bd35 10be 6797 843c
000002b0: b8d8 11bd 0987 2a3e 7c4b 5ebe c9a8 cabe
000002c0: 0a7a 8ebe 0688 243e 7d81 58bd 1345 8bbd
000002d0: 03ed 08be fd3a 95bd 136d dabf e205 32bb
000002e0: 31ff f03d 4b75 ae3d 7e21 80bd 5f3c acbc
000002f0: 3b9c d5bd 0c3c 1e3e 10f0 4dbe db46 4fbb
00000300: 680c 883e 4a18 6cbe a04f 963e 644e 7ebe
00000310: d3fd 843e f182 1fbe 597d d53e db1f 323e
00000320: 0fa3 013f 5b75 5c3e d274 163e 9de3 0cbe
00000330: 6ecd 60bd fe94 2b3d 1db5 3d3e a534 483e
00000340: 0405 533f 3fa7 0c3d 7cbd 523e 6740 6dbe
00000350: ee5c 2b3d 1782 053d 60bf 8fbd 2d77 0bbe
00000360: 4b61 f73d 04bf cfbd af6f 63bd 7b5e 6fbe
00000370: 07b7 5cbe 8ec1 773d 876a 8d3e 9a4b 5f3d
00000380: 941a 883e 5e38 ab3e 8b15 f43e f85e 733c
00000390: e6b9 da3d 5c32 413e e617 473e 30a4 35be
000003a0: ab7a 02bd 2f2a 5fbe bc3b 593e e5e5 ce3d
000003b0: 7398 0a3e 6927 d23d 909d 47be 322f 6ebe
000003c0: 7e57 8dbe d839 613e e47b f73d f40a 153d
000003d0: be3b 7e3e 38a3 ce3e 7f0d 83be 08e9 c13d
000003e0: ccf5 a63c cea2 6bbe 2d91 7e3e b0e8 bb3d
000003f0: 7916 083e 001f c83c 1cb5 ad3e fba4 45be

lstm.weight_hh_l0 f4 [256, 64]
-0.29127863 -0.3135448 -0.16034198 0.053482767 0.008675912 -0.09555088 0.11189829 -0.40343267
0.45218933 -0.15196086 0.11573275 0.12582558 -0.09459175 0.03473181 -0.07264497 0.4115713
-0.38588047 -0.1348997 -0.3548519 -0.09490507 -0.057004105 0.119073085 -0.18958975 -0.2668443
0.13706036 0.19522546 -0.18045753 0.096323594 -0.15613176 0.2557664 0.16554873 0.2486826
0.3591521 -0.017951105 0.25089216 -0.054205973 -0.060570776 0.28750795 -0.08888045 -0.40883246
0.072880074 0.03524186 -0.018395629 0.14135696 0.08015846 0.22428985 -0.043595724 -0.062711395
-0.63158745 -0.021834606 -0.058306158 0.40371192 -0.40300217 0.14826295 -0.2726949 0.1948352
0.18032326 0.25646546 0.032650568 0.059001442 0.0037741505 0.14686967 -0.034356542 -0.34889692
-0.13788696 0.040991396 -0.14488193 -0.058073662 -0.02358996 -0.058878627 -0.39843744 -0.10133416
0.11622133 -0.22243263 -0.23793116 0.1263064 -0.14032702 -0.11216845 0.14734933 -0.11821939
-0.025347544 -0.01842566 -0.161137 0.11606608 0.28027672 0.07623914 -0.12631977 0.010465522
0.12108722 0.016183287 -0.03846145 -0.12809236 -0.07410305 -0.066146635 -0.0778987 0.0068175057
0.41379353 0.19622682 0.07318767 0.02858113 -0.08118176 -0.1133212 -0.047862746 0.12939169
0.0646103 0.37746802 -0.06206175 0.26227325 -0.24020876 0.060280014 -0.18654953 -0.013635772
-0.21214925 -0.0021602174 -0.059866056 0.027690077 -0.04542154 0.33443186 -0.040201988 0.3252502
0.14025803 0.16386567 0.18658794 -0.01747456 0.01954185 0.059699688 0.13692658 -0.3144231
-0.006047114 0.035687782 -0.07722626 -0.21940935 -0.090849884 0.15313675 0.011572297 -0.15975255
0.025389062 -0.034668982 -0.33086303 -0.2639579 0.09479621 -0.1749064 0.18840905 -0.11113174
-0.017060386 -0.1469092 -0.2596962 0.031918716 0.19680075 0.11859071 -0.12021508 -0.0563207
0.18273905 0.17254822 -0.089899324 0.18282218 -0.59803855 -0.09494455 -0.046692032 0.006678257
0.34928358 0.15676078 0.14482597 -0.16285427 -0.28516316 0.05610502 -0.045030218 0.019734912
0.19425142 0.09178682 0.11135402 0.15886988 -0.043490138 -0.072817 -0.21203543 -0.30382288
-0.04131675 -0.06468152 -0.013308923 0.19411428 0.048774198 -0.11493983 -0.09451079 0.17937778
0.050449863 -0.10291145 -0.009597678 -0.2380247 0.07345655 0.077583924 0.09063131 -0.0612139
-0.22358678 -0.3327024 -0.02087922 0.16773306 -0.14030598 -0.5051705 -0.58636326 -0.36867794
-0.1337887 -0.19571663 0.013411929 0.082506366 0.15925898 -0.046024736 0.12709723 0.11992353
-0.20145644 0.08388405 -0.30711198 -0.09856741 0.014903287 -0.073565654 0.03656304 -0.043569908
0.17872167 -0.03614538 -0.3388533 0.27677542 0.13783205 0.7068705 0.12551567 -0.25099385
-0.094234385 0.26346758 0.24977203 -0.26749113 -0.108379684 -0.042413212 -0.08478605 -0.09171259
0.025417106 0.019256555 -0.19384387 -0.03107919 -0.37227032 -0.4230982 -0.04416443 0.14679852
-0.32649487 0.28956807 -0.092811905 -0.4906488 -0.119529 0.2693464 -1.292196 -0.08416526
-0.03675011 -0.24075447 0.13542604 0.07649991 0.02503195 0.007770918 -0.14890286 0.089229435
00000000: 7922 95be f288 a0be b030 24be bf10 5b3d
00000010: 6a25 0e3c 2eb0 c3bd ee2a e53d ba8e cebe
00000020: 5c85 e73e a19b 1bbe 4b05 ed3d 6cd8 003e
00000030: 52b9 c1bd f142 0e3d e3c6 94bd 79b9 d23e
00000040: 2092 c5be 2623 0abe 26af b5be 975d c2bd
00000050: 237d 69bd 97dc f33d d123 42be d19f 88be
00000060: 8d59 0c3e 2fe9 473e dcc9 38be 4e45 c53d
00000070: 01e1 1fbe d0f3 823e 9b85 293e a7a6 7e3e
00000080: c9e2 b73e 320e 93bc f074 803e 1507 5ebd
00000090: 1019 78bd 3e34 933e f406 b6bd 7d52 d1be
000000a0: 2642 953d c559 103d 6eb2 96bc e1bf 103e
000000b0: 1e2a a43d 3dac 653e 6e91 32bd d56e 80bd
000000c0: b7af 21bf 7dde b2bc 70d2 6ebd 54b3 ce3e
000000d0: 4d56 cebe 3ed2 173e aa9e 8bbe e182 473e
000000e0: a9a6 383e 714f 833e 9abc 053d 7fab 713d
000000f0: bd57 773b 0165 163e 72b9 0cbd 9ea2 b2be
00000100: 3d32 0dbe 98e6 273d ee5b 14be a6de 6dbd
00000110: bb3f c1bc b72a 71bd feff cbbe 4988 cfbd
00000120: 7305 ee3d 61c5 63be 3aa4 73be 7756 013e
00000130: e3b1 0fbe 93b8 e5bd bee2 163e 021d f2bd
00000140: a7a5 cfbc 69f1 96bc 1901 25be 0eb4 ed3d
00000150: 6e80 8f3e 4423 9c3d f859 01be 9577 2b3c
00000160: 94fc f73d d092 843c c189 1dbd a52a 03be
00000170: 57c3 97bd e377 87bd 5b89 9fbd 6265 df3b
00000180: bfdc d33e afef 483e 6be3 953d f922 ea3c
00000190: 9f42 a6bd f214 e8bd ba0b 44bd 417f 043e
000001a0: 6852 843d 7d43 c13e 7634 7ebd ae48 863e
000001b0: 49f9 75be 2de8 763d d706 3fbe 9368 5fbc
000001c0: a73d 59be 6f92 0dbb 1c36 75bd 4dd6 e23c
000001d0: f00b 3abd a73a ab3e d7aa 24bd 3287 a63e
000001e0: cd9f 0f3e 67cc 273e e910 3f3e cf26 8fbc
000001f0: 3b16 a03c a987 743d 7b36 0c3e 11fc a0be
00000200: de26 c6bb 5a2d 123d cd28 9ebd d8ac 60be
00000210: 810f babd e1cf 1c3e bb99 3d3c 2c96 23be
00000220: b9fc cf3c 1001 0ebd e166 a9be 7d25 87be
00000230: 8424 c23d aa1a 33be 4dee 403e 0a99 e3bd
00000240: 39c2 8bbc 5e6f 16be e6f6 84be 33bd 023d
00000250: 2386 493e b0df f23d 5333 f6bd 89b0 66bd
00000260: f21f 3b3e 7bb0 303e 231d b8bd bd35 3b3e
00000270: 0e19 19bf 4a72 c2bd 2540 3fbd 48d5 da3b
00000280: 4cd5 b23e e685 203e 424d 143e 45c3 26be
00000290: e800 92be 61ce 653d 9b71 38bd 1cab a13c
000002a0: d8e9 463e bafa bb3d 940d e43d c9ae 223e
000002b0: b722 32bd 1421 95bd d11f 59be ac8e 9bbe
000002c0: c13b 29bd bf77 84bd ab0d 5abc e5c5 463e
000002d0: 74c7 473d 9365 ebbd e08e c1bd cfae 373e
000002e0: 84a4 4e3d 3dc3 d2bd 943f 1dbc bfbc 73be
000002f0: 6370 963d 52e4 9e3d e99c b93d 6dbb 7abd
00000300: eff3 64be f857 aabe e60a abbc 37c2 2b3e
00000310: 5fac 0fbe db52 01bf e71b 16bf 5bc3 bcbe
00000320: e8ff 08be f169 48be b5bd 5b3c 19f9 a83d
00000330: c914 233e 6f84 3cbd c725 023e 789a f53d
00000340: 994a 4ebe 67cb ab3d c83d 9dbe b6dd c9bd
00000350: eb2c 743c 97a9 96bd 20c3 153d 5c76 32bd
00000360: d002 373e 2e0d 14bd 2e7e adbe 82b5 8d3e
00000370: d823 0d3e 77f5 343f 2e87 003e 4482 80be
00000380: f5fd c0bd 39e5 863e 3dc4 7f3e 99f4 88be
00000390: 2bf6 ddbd 7ab9 2dbd 4fa4 adbd cfd3 bbbd
000003a0: 8937 d03c ecbf 9d3c 027f 46be c999 febc
000003b0: 379a bebe 54a0 d8be c3e5 34bd 5a52 163e
000003c0: 562a a7be 4442 943e 2b14 bebd 5236 fbbe
000003d0: 9fcb f4bd c5e7 893e ae66 a5bf d65e acbd
000003e0: 4987 16bd 5788 76be 20ad 0a3e fcab 9c3d
000003f0: ce0f cd3c 2fa3 fe3b fe79 18be ecbd b63d

lstm.bias_ih_l0 f4 [256]
0.096629396 0.051892336 -0.3182212 0.28002426 0.16929862 0.11462675 -0.2839054 0.10778916
0.23792437 -0.0024190655 -0.13711135 0.03522939 0.029604187 -0.005127447 0.14735682 0.1942192
0.1445243 0.16656043 0.08937571 -0.016413173 0.020622367 0.10106541 -0.020978699 0.042537056
0.055849794 0.03536002 0.25722662 -0.02893691 0.11561143 0.072939485 0.04531457 -0.15390243
-0.18087895 -0.2399663 0.13961215 -0.006476603 0.35830495 -0.005071735 0.09617373 0.017112523
0.067020305 -0.10476775 0.17087507 0.14166413 -0.15953824 0.21000844 0.30585957 0.20439053
-0.09411393 -0.064316995 -0.025387198 -0.152192 -0.016539514 0.080932684 0.29772443 -0.061001968
0.1165273 -0.070359275 0.0644978 0.1651492 -0.030547291 0.12788287 -0.08848844 -0.21611257
0.109369285 -0.068503626 0.031241858 0.12901606 0.06676498 0.03076975 0.057463832 -0.071253784
-0.029400496 -0.0700684 0.032338236 -0.16612351 0.10781186 0.03384175 0.011733218 -0.12178202
-0.033401415 0.09668435 0.044853088 -0.07276139 -0.098248355 -0.10138357 -0.020439897 -0.18046886
0.19088736 -0.08448893 0.015669046 -0.09924551 -0.08053533 -0.26056215 0.121480905 -0.05984917
-0.02124135 0.009105578 0.07012724 0.12027548 -0.10406152 -0.12627907 0.1525841 -0.1246659
0.14590801 -0.08121195 -0.022579297 0.18291955 -0.10787189 0.16987297 0.111674346 0.084754564
-0.08148329 0.03885227 0.07355581 -0.0113528045 -0.059417725 0.15037473 -0.22575212 0.10176028
-0.028781142 0.051536098 -0.043006588 0.101622455 -0.007462373 0.019416435 0.01949554 -0.04635084
0.21259058 0.08001122 0.25113872 -0.14085756 0.055182986 0.115397334 0.11961227 0.023848291
-0.024657127 0.06775946 0.017100688 0.047927093 0.032011375 -0.06314646 0.1700605 -0.26122344
0.20747079 -0.26313734 -0.044306517 0.09426722 0.1472818 -0.08579242 -0.15219843 0.23888415
0.26501396 -0.13350622 -0.012338621 -0.07066778 -0.09502888 -0.014830207 -0.066279754 -0.030901514
-0.28588015 -0.16554771 0.122398905 -0.008256158 -0.15979467 -0.19419229 0.008772981 0.064250164
0.09513493 0.030478708 0.029187072 -0.055657256 0.021507531 0.14541326 -0.11120945 -0.104018696
0.0071179494 0.04427426 -0.068639666 0.105804 0.1558117 0.0009331267 -0.00836019 -0.09705394
-0.09319326 -0.045147568 -0.06978987 -0.13223511 -0.12916788 0.20866513 0.13687645 0.09072684
0.0004461316 0.1082873 -0.064167716 0.07650667 0.01897955 0.04444484 0.093995035 0.2142329
-0.027161205 -0.11860036 -0.31370133 0.13189514 0.10780929 0.0025794995 0.01826074 0.06855072
0.24141014 0.2768387 0.08313788 0.091047965 0.16625778 0.15323465 0.1818583 0.21072155
0.034740057 0.14128084 0.22382271 0.16600218 0.19314095 -0.056368917 0.12946458 -0.09367769
0.16331294 0.08689568 0.044275016 0.13736369 0.19258402 0.14926249 0.106131315 0.18089361
0.10416961 0.064483136 0.09442369 0.12587689 -0.066886134 0.11224172 0.057465483 0.098574355
0.22861244 0.029254269 0.029976286 0.0025760958 0.21217883 0.06769364 0.18492904 0.07213797
-0.0142819425 -0.020753495 -0.11874468 0.10031512 -0.0010430316 0.20989853 0.07709649 0.0102015585
00000000: a2e5 c53d 0f8d 543d e4ed a2be 575f 8f3e
00000010: 9e5c 2d3e 6ec1 ea3d 0c5c 91be 90c0 dc3d
00000020: 72a2 733e 2f89 1ebb eb66 0cbe b14c 103d
00000030: 7b84 f23c 2504 a8bb b5e4 163e 66e1 463e
00000040: 2efe 133e d18e 2a3e 9d0a b73d eb74 86bc
00000050: 3df0 a83c 62fb ce3d 85db abbc 563b 2e3d
00000060: c1c2 643d abd5 103d 35b3 833e 190d edbc
00000070: afc5 ec3d 4c61 953d c59b 393d 9998 1dbe
00000080: 5538 39be bab9 75be 7df6 0e3e af39 d4bb
00000090: bf73 b73e cc30 a6bb bcf6 c43d 902f 8c3c
000000a0: f141 893d 7990 d6bd e0f9 2e3e 6710 113e
000000b0: fe5d 23be 740c 573e a099 9c3e c04b 513e
000000c0: cebe c0bd a1b8 83bd d0f8 cfbc 38d8 1bbe
000000d0: e07d 87bc 09c0 a53d 566f 983e 33dd 79bd
000000e0: dda5 ee3d 8618 90bd 6c17 843d df1c 293e
000000f0: 503e fabc baf3 023e 6d39 b5bd 9d4c 5dbe
00000100: 01fd df3d a14b 8cbd edee ff3c c91c 043e
00000110: 14bc 883d d810 fc3c 325f 6b3d 81ed 91bd
00000120: 4fd9 f0bc 0580 8fbd 1975 043d 481c 2abe
00000130: 77cc dc3d a69d 0a3d af3c 403c da68 f9bd
00000140: eccf 08bd 7202 c63d dfb7 373d ec03 95bd
00000150: 6f36 c9bd 30a2 cfbd 9271 a7bc d4cc 38be
00000160: fa77 433e 8808 adbd 5f5c 803c 3b41 cbbd
00000170: b5ef a4bd 6768 85be fbca f83d 6724 75bd
00000180: 5702 aebc 902f 153c df9e 8f3d fe52 f63d
00000190: 351e d5bd 4d4f 01be 023f 1c3e d650 ffbd
000001a0: e968 153e 7352 a6bd 38f8 b8bc 434f 3b3e
000001b0: f0eb dcbd 2ef3 2d3e 85b5 e43d cd93 ad3d
000001c0: b6e0 a6bd 8f23 1f3d 6ea4 963d 1d01 3abc
000001d0: 0060 73bd d5fb 193e 902b 67be b267 d03d
000001e0: 6ec6 ebbc 8417 533d ad27 30bd 6f1f d03d
000001f0: ec86 f4bb 370f 9f3c 1cb5 9f3c 61da 3dbd
00000200: 58b1 593e ecdc a33d 4195 803e f73c 10be
00000210: 8e07 623d 7055 ec3d 47f7 f43d 7e5d c33c
00000220: befd c9bc 79c5 8a3d be16 8c3c 334f 443d
00000230: 5c1e 033d ee52 81bd 5724 2e3e 14bf 85be
00000240: 3973 543e f0b9 86be c07a 35bd 2c0f c13d
00000250: 0ad1 163e f0b3 afbd e8d9 1bbe 0c9e 743e
00000260: e9af 873e dbb5 08be ed27 4abc 45ba 90bd
00000270: 809e c2bd 66fa 72bc aebd 87bd 2c25 fdbc
00000280: e25e 92be 5785 29be 47ac fa3d d644 07bc
00000290: 37a1 23be 58da 46be 8dbc 0f3c 9795 833d
000002a0: 1ad6 c23d 7cae f93c ba19 ef3c ddf8 63bd
000002b0: 9030 b03c 37e7 143e c8c1 e3bd c107 d5bd
000002c0: b03d e93b ed58 353d f492 8cbd c4af d83d
000002d0: 1a8d 1f3e 139d 743a 2ef9 08bc 37c4 c6bd
000002e0: 1cdc bebd a8ec 38bd feed 8ebd a468 07be
000002f0: 9644 04be 50ac 553e 5729 0c3e fece b93d
00000300: c5e6 e939 bbc5 dd3d 5d6a 83bd 87af 9c3d
00000310: 007b 9b3c cb0b 363d 7880 c03d df5f 5b3e
00000320: 2d81 debc bfe4 f2bd 769d a0be 850f 073e
00000330: 1ecb dc3d d20c 293b 8c97 953c 5264 8c3d
00000340: 3834 773e cdbd 8d3e 3144 aa3d 5b77 ba3d
00000350: 7b3f 2a3e 8be9 1c3e 1039 3a3e 64c7 573e
00000360: 974b 0e3d edab 103e c831 653e 7afc 293e
00000370: bec6 453e 18e3 66bd 5d92 043e 17da bfbd
00000380: 823b 273e 5df6 b13d b859 353d 11a9 0c3e
00000390: bf34 453e 44d8 183e 605b d93d 2d3c 393e
000003a0: e056 d53d bc0f 843d 3561 c13d dfe5 003e
000003b0: 99fb 88bd fdde e53d ed60 6b3d 5ae1 c93d
000003c0: 6119 6a3e a6a6 ef3c d490 f53c b7d3 283b
000003d0: 6845 593e f7a2 8a3d 0a5e 3d3e 12bd 933d
000003e0: cffe 69bc 3c03 aabc 6930 f3bd 0372 cd3d
000003f0: 55b6 88ba a4ef 563e c4e4 9d3d 7024 273c

lstm.bias_hh_l0 f4 [256]
0.10804096 0.08517537 -0.31350192 0.094132 0.10594776 0.08787054 -0.18031651 0.023636704
0.17673796 0.05768707 -0.16502893 0.09665783 -0.015162584 0.03357296 0.106558844 0.075355515
0.27571082 0.06461987 0.006005946 -0.049717557 -0.03047991 -0.08552039 0.07553014 0.2357281
0.073111184 0.009513722 0.24537216 -0.21981628 0.16400132 -0.035552204 0.22235961 -0.092675164
-0.11214524 -0.24967775 0.15056446 0.024141503 0.35225493 0.1280799 0.16823277 0.18222125
-0.03234462 -0.07884022 0.23923655 0.05038952 -0.17429864 0.14111486 0.2587238 0.3748627
-0.06360331 -0.0012454556 0.0856851 -0.13591139 0.11387608 0.14953122 0.21718548 0.025702378
0.009953072 0.01466098 0.17534517 -0.048098043 0.07312648 0.18402581 -0.053583387 -0.14792556
-0.061375692 0.078472726 0.0035179853 -0.010946129 0.14048432 -0.002362494 0.0026589844 0.06953079
-0.11602764 0.0101130195 -0.16404936 0.0075536757 -0.120369 0.15433274 0.15198778 -0.0662623
-0.19638216 0.047671746 -0.0071537197 0.016461687 -0.019781547 -0.099144936 -0.041316785 -0.049909323
0.17972015 -0.042026915 -0.016764376 -0.13791773 -0.043457586 -0.13102102 -0.06729698 -0.089703
0.06418223 0.002095598 0.057553504 0.11018965 -0.110730544 0.017011229 0.20343256 -0.125861
0.18618213 0.026110852 -0.15528136 0.2015938 0.036800932 0.053531315 0.0072606523 0.024093667
-0.10129255 0.05138997 0.15153138 -0.06989815 0.03679594 0.14418851 -0.1940086 -0.0662778
0.022858497 -0.045790136 -0.136822 0.17663898 0.06452679 0.21767502 -0.11371475 0.022328958
0.22749735 0.09026706 0.18131965 -0.093897894 0.16562402 0.050699227 0.25457087 0.061451674
-0.108565934 -0.13034734 0.0012455863 0.019534066 -0.03700055 0.0395822 0.102019094 -0.15192802
0.225408 -0.29381052 0.07377284 -0.070963405 0.13411279 0.06857465 0.008158167 0.123480454
0.23045045 -0.029109113 0.008294129 -0.0933733 -0.20148636 -0.16328359 -0.037258483 0.062087804
-0.27634743 -0.024406318 -0.067519 -0.13183588 -0.21003908 -0.14600435 0.044526424 0.22552821
0.14154497 0.033107452 -0.035002116 0.17499632 0.16785607 0.2497455 -0.13689838 -0.32066974
0.044422593 0.008635474 -0.18218756 0.16209704 -0.01274 0.101215065 0.08238465 0.08597202
0.019964747 -0.14636645 -0.16738656 -0.14311424 0.050186936 0.10893945 -0.05941218 0.039779305
0.15775962 0.05488523 -0.06328362 0.13409157 0.08839614 -0.02242052 0.1093575 0.105341524
0.015265829 -0.08967849 -0.40322155 0.046514377 0.163434 -0.07194271 0.07698122 0.18565561
0.1663368 0.25519535 -0.04427195 0.062108524 0.12615436 0.0057687457 0.10925839 0.1680965
-0.02896754 0.10534255 0.12559783 0.2099315 0.17614868 -0.13903907 -0.048450973 -0.00600097
0.18720824 0.012317845 0.03398925 0.12836371 0.04465555 0.09913126 -0.10659588 0.0800469
0.03919005 0.13307837 0.29488993 0.2615172 -0.07210439 0.24416903 0.16975226 0.12875219
0.24422474 0.060164038 0.18979132 0.13037239 0.008836881 0.16454394 0.27187702 -0.042823162
-0.028728785 0.18148237 0.046433534 -0.019060472 0.008172521 0.16528983 0.19603238 0.11014597
00000000: 9444 dd3d 6d70 ae3d 5383 a0be 47c8 c03d
00000010: 24fb d83d 78f5 b33d e4a4 38be c3a1 c13c
00000020: ccfa 343e 4749 6c3d 58fd 28be 8af4 c53d
00000030: 7d6c 78bc cd83 093d 863b da3d fe53 9a3d
00000040: f829 8d3e 6c57 843d 87cd c43b a3a4 4bbd
00000050: 01b1 f9bc 5025 afbd 8caf 9a3d b562 713e
00000060: 51bb 953d 71df 1b3c d742 7b3e 8517 61be
00000070: f6ef 273e 309f 11bd 3db2 633e 7acc bdbd
00000080: 67ac e5bd 86ab 7fbe 922d 1a3e 67c4 c53c
00000090: c25a b43e 6127 033e 3645 2c3e 3598 3a3e
000000a0: cb7b 04bd fb76 a1bd 6dfa 743e 3e65 4e3d
000000b0: 587b 32be 6a80 103e 7277 843e 01ee bf3e
000000c0: 7442 82bd 8e3e a3ba ab7b af3d 5b2c 0bbe
000000d0: dd37 e93d b61e 193e df65 5e3e cb8d d23c
000000e0: 3612 233c 9b34 703c af8d 333e 7402 45bd
000000f0: 56c3 953d 4371 3c3e 417a 5bbd cc79 17be
00000100: 1465 7bbd 4fb6 a03d 008e 663b 6557 33bc
00000110: 1fdb 0f3e 12d4 1abb 5b42 2e3b 2966 8e3d
00000120: e69f edbd 14b1 253c 8efc 27be d384 f73b
00000130: 0684 f6bd 6709 1e3e afa2 1b3e 87b4 87bd
00000140: 6818 49be 7343 433d c069 eabb a9da 863c
00000150: e90c a2bc 800c cbbd ca3b 29bd b86d 4cbd
00000160: 8f08 383e 6a24 2cbd 7255 89bc 4e3a 0dbe
00000170: 9500 32bd 602a 06be 00d3 89bd 35b6 b7bd
00000180: f971 833d 4d56 093b 39bd 6b3d 1cab e13d
00000190: b2c6 e2bd 225b 8b3c a050 503e b5e1 00be
000001a0: 87a6 3e3e 6de6 d53c 1402 1fbe 9b6e 4e3e
000001b0: 93bc 163d a743 5b3d c4ea ed3b 1560 c53c
000001c0: 7872 cfbd 4a7e 523d 0b2b 1b3e c326 8fbd
000001d0: 57b7 163d 27a6 133e 31aa 46be a8bc 87bd
000001e0: be41 bb3c 708e 3bbd 111b 0cbe d9e0 343e
000001f0: 9f26 843d 33e6 5e3e 47e3 e8bd 38eb b63c
00000200: 11f5 683e f0dd b83d dcab 393e 8a4d c0bd
00000210: 5899 293e fea9 4f3d 1d57 823e c0b4 7b3d
00000220: d157 debd c679 05be f142 a33a e805 a03c
00000230: e48d 17bd f220 223d 63ef d03d 0593 1bbe
00000240: 5bd1 663e 556e 96be 3716 973d 4355 91bd
00000250: dd54 093e de70 8c3d d5a9 053c 52e3 fc3d
00000260: 34fb 6b3e 3c76 eebc 19e4 073c 803a bfbd
00000270: 7152 4ebe d033 27be 5a9c 18bd c84f 7e3d
00000280: 697d 8dbe c2ef c7bc 6747 8abd fcff 06be
00000290: 7c14 57be 2a82 15be 5761 363d def0 663e
000002a0: 2af1 103e ae9b 073d 615e 0fbd 3c32 333e
000002b0: 76e2 2b3e 49bd 7f3e 172f 0cbe d32e a4be
000002c0: 77f4 353d ce7b 0d3c 608f 3abe c4fc 253e
000002d0: 6fbb 50bc d849 cf3d 49b9 a83d 1912 b03d
000002e0: 1c8d a33c 16e1 15be 6267 2bbe 8a8c 12be
000002f0: d190 4d3d a51b df3d 305a 73bd a0ef 223d
00000300: bd8b 213e 56cf 603d d89a 81bd 4d4f 093e
00000310: 0909 b53d 3dab b7bc d3f6 df3d 4cbd d73d
00000320: 871d 7a3c 5ba9 b7bd 0e73 cebe dc85 3e3d
00000330: 3e5b 273e b356 93bd 54a8 9d3d 811c 3e3e
00000340: 3254 2a3e f7a8 823e 8156 35bd 8265 7e3d
00000350: 9c2e 013e bf07 bd3b ddc2 df3d 7d21 2c3e
00000360: 564d edbc d6bd d73d b89c 003e 48f8 563e
00000370: 5260 343e 4260 0ebe 8774 46bd c9a3 c4bb
00000380: 84b3 3f3e c9d0 493c 5038 0b3d c771 033e
00000390: bde8 363d 5405 cb3d f14e dabd a1ef a33d
000003a0: bf85 203d b245 083e d0fb 963e 95e5 853e
000003b0: 77ab 93bd 7207 7a3e 89d3 2d3e 9dd7 033e
000003c0: 0d16 7a3e 916e 763d a858 423e 5780 053e
000003d0: 91c8 103c 357e 283e 7733 8b3e 5767 2fbd
000003e0: a158 ebbc 84d6 393e 1731 3e3d b524 9cbc
000003f0: 0ae6 053c bd41 293e b6bc 483e 3694 e13d

lstm.weight_ih_l1 f4 [256, 64]
0.040152237 0.002110667 -0.11193625 0.08220717 0.00928408 -0.0047719935 -0.039499927 0.006983661
-0.0010658571 0.020046843 0.12936848 0.045030884 0.11353647 0.036048505 -0.08819686 -0.059687186
0.00073667296 0.11475481 -0.09737882 0.0706153 0.23251714 -0.12037568 0.08852793 -0.061639603
-0.054028094 0.043139357 -0.046233814 0.056993827 -0.04853112 0.10821706 -0.08499802 0.00418101
0.04535508 0.07124616 0.2698836 -0.08417008 0.015800215 0.062407594 -0.12857883 -0.018112136
-0.03486728 0.24579334 0.049364924 0.09780275 -0.1296219 -0.0102581605 0.10757186 0.06331724
0.013428662 -0.14216135 -0.019042864 0.02332959 -0.0680316 -0.018796632 -0.05349897 -0.027545046
-0.08256091 -0.08485731 0.102661796 0.018925956 -0.08920298 -0.051999554 -0.019807419 -0.13612078
0.11861196 0.25012252 -0.12508161 0.16110635 0.18138276 0.07718779 -0.053878445 -0.19025248
0.039651897 -0.10579422 -0.07098378 0.027879499 -0.08891774 -0.07208805 -0.007055428 0.16413811
-0.09777285 -0.082380176 0.112216674 0.021406466 -0.034762263 -0.031656392 -0.12178352 -0.06475849
-0.10354453 0.15862599 0.16706166 0.08698468 -0.07660348 -0.0058352477 0.12812403 0.04382805
-0.011181374 -0.0046586487 -0.194968 0.18514806 -0.098973736 -0.057633933 0.04633477 0.005710806
0.055653814 0.060758248 -0.010676576 -0.022840466 -0.14245991 -0.14703967 -0.05000882 -0.101328105
0.0878327 0.031980466 0.07579956 -0.117273934 -0.16079706 -0.113194875 -0.07243064 0.0101449415
-0.011465367 -0.096653976 -0.13420786 -0.03867673 -0.11401905 -0.10839266 -0.14569938 0.24701793
-0.040739946 0.13631353 -0.00057815993 -0.018949304 0.09445552 -0.054193653 0.0011066325 0.09440465
-0.15121111 -0.023402248 -0.0959323 0.075601235 0.076138854 -0.05175262 0.11966849 0.082728915
0.10930135 -0.14035365 -0.10349292 0.14317742 -0.06479868 0.13416708 -0.080773726 0.16966452
-0.039425317 0.0021486222 0.030850053 -0.033673298 0.06051555 -0.02878866 0.03241558 0.022462716
-0.013674965 -0.029683528 0.004633109 0.10649613 -0.0057059117 0.08763176 -0.107472226 -0.042820655
0.11647637 0.08847569 0.058912635 0.05017013 -0.10837146 0.112765245 -0.04127761 -0.1490197
-0.14161485 0.00634158 -0.09542132 -0.14249592 -0.0047176904 0.05492774 -0.032458737 0.15571567
-0.033873785 -0.07440402 0.12497237 0.04765812 0.03824148 0.11123023 -0.1092797 -0.1602098
0.12254899 -0.4465386 0.11485011 0.08218382 0.079978704 -0.07830471 -0.044812474 0.2756193
0.04725654 -0.06422863 -0.057157665 0.11231586 -0.038884457 -0.07794064 -0.20780626 -0.18937024
0.06981993 -0.06252186 0.00092152605 0.243508 0.3725375 0.050282653 -0.04769088 0.24691485
0.09564945 0.023248712 0.0038900871 -0.010946772 -0.17490873 -0.2053907 -0.21265921 0.07902648
-0.308397 -0.26720223 0.08778701 0.008135433 0.0064648665 -0.13791971 0.03524476 -0.11549091
0.0032392952 0.2458181 0.099619225 0.05705 -0.046363633 -0.091059096 -0.1564586 -0.22377945
-0.08900397 -0.16625628 -0.07288208 0.39821464 0.10863361 -0.34253272 -0.084114864 -0.012847277
-0.07272922 0.42843154 0.19306678 0.034713194 0.08455362 0.10460377 0.06287481 -0.4824553
00000000: ac76 243d 1e53 0a3b d53e e5bd 3c5c a83d
00000010: 411c 183c 625e 9cbb adca 21bd 32d7 e43b
00000020: 3bb4 8bba 4739 a43c 2c79 043e 4e72 383d
00000030: cf85 e83d 99a7 133d 8ea0 b4bd 8d7a 74bd
00000040: 491d 413a 9204 eb3d 8c6e c7bd c19e 903d
00000050: f918 6e3e 8687 f6bd 224e b53d cf79 7cbd
00000060: 904c 5dbd e5b2 303d ab5f 3dbd 5c72 693d
00000070: 91c8 46bd e8a0 dd3d 7113 aebd db00 893b
00000080: 40c6 393d 82e9 913d 2f2e 8a3e 5d61 acbd
00000090: 746f 813c 1b9f 7f3d 2baa 03be e75f 94bc
000000a0: fed0 0ebd 40b1 7b3e e032 4a3d cf4c c83d
000000b0: 9abb 04be d811 28bc a34e dc3d 78ac 813d
000000c0: e403 5c3c bf92 11be c8ff 9bbc b21d bf3c
000000d0: 2754 8bbd 65fb 99bc bc21 5bbd 26a6 e1bc
000000e0: b215 a9bd abc9 adbd 5940 d23d 9b0a 9b3c
000000f0: 0db0 b6bd 7cfd 54bd 2b43 a2bc 3f63 0bbe
00000100: d4ea f23d 0f10 803e 6515 00be 10f9 243e
00000110: 67bc 393e a214 9e3d a5af 5cbd 8cd1 42be
00000120: 076a 223d a4aa d8bd f25f 91bd 8c63 e43c
00000130: 811a b6bd e6a2 93bd 3831 e7bb d213 283e
00000140: 223d c8bd f0b6 a8bd dbd1 e53d 9d5c af3c
00000150: e062 0ebd 22aa 01bd a369 f9bd 19a0 84bd
00000160: 280f d4bd da6e 223e 3612 2b3e 0625 b23d
00000170: 49e2 9cbd 9b35 bfbb f232 033e 0b85 333d
00000180: 1532 37bc 94a7 98bb b1a5 47be 7497 3d3e
00000190: beb2 cabd 8f11 6cbd 87c9 3d3d b721 bb3b
000001a0: 41f5 633d a4dd 783d ceec 2ebc ee1b bbbc
000001b0: 03e1 11be 9191 16be 0cd6 4cbd 1c85 cfbd
000001c0: a1e1 b33d f3fd 023d cd3c 9b3d 512d f0bd
000001d0: fca7 24be b7d2 e7bd 8456 94bd f836 263c
000001e0: 3cd9 3bbc 85f2 c5bd c96d 09be 7e6b 1ebd
000001f0: d282 e9bd f9fc ddbd 3832 15be 45f2 7c3e
00000200: eede 26bd c695 0b3e a88f 17ba 923b 9bbc
00000210: e571 c13d 2afa 5dbd 6d0c 913a 3a57 c13d
00000220: 16d7 1abe 12b6 bfbc 2778 c4bd d2d4 9a3d
00000230: b0ee 9b3d 8efa 53bd c114 f53d c76d a93d
00000240: 63d9 df3d deb8 0fbe 19f4 d3bd 1a9d 123e
00000250: 2cb5 84bd 1863 093e b26c a5bd 89bc 2d3e
00000260: 717c 21bd e6cf 0c3b 40b9 fc3c 03ed 09bd
00000270: 27df 773d 32d6 ebbc 33c6 043d bb03 b83c
00000280: f60c 60bc df2a f3bc 56d1 973b a51a da3d
00000290: a8f8 babb 4878 b33d 661a dcbd b664 2fbd
000002a0: 2a8b ee3d be32 b53d 604e 713d 327f 4d3d
000002b0: dbf1 ddbd 77f1 e63d b612 29bd 9f98 18be
000002c0: 7c03 11be 07cd cf3b 416c c3bd 73ea 11be
000002d0: db96 9abb e9fb 603d 74f3 04bd ee73 1f3e
000002e0: 3dbf 0abd 2361 98bd 84f1 ff3d 2935 433d
000002f0: 19a3 1c3d adcc e33d 09ce dfbd 0a0e 24be
00000300: f7fa fa3d b5a0 e4be 8936 eb3d fe4f a83d
00000310: e0cb a33d 385e a0bd 498d 37bd f91d 8d3e
00000320: 1390 413d 4d8a 83bd 281e 6abd dc05 e63d
00000330: 4f45 1fbd 589f 9fbd 2acb 54be 46ea 41be
00000340: c0fd 8e3d 760b 80bd 9192 713a 295a 793e
00000350: 3cbd be3e 2ff5 4d3d 8357 43bd 3fd7 7c3e
00000360: dce3 c33d 1574 be3c d5f0 7e3b 175a 33bc
00000370: 461b 33be f151 52be 56c3 59be a3d8 a13d
00000380: 36e6 9dbe bbce 88be adc9 b33d 7b4a 053c
00000390: 3bd7 d33b d33a 0dbe cf5c 103d 8086 ecbd
000003a0: 5b4a 543b bdb7 7b3e 2a05 cc3d 43ad 693d
000003b0: cbe7 3dbd 317d babd af36 20be 7126 65be
000003c0: b747 b6bd 163f 2abe 3343 95bd cae2 cb3e
000003d0: 4c7b de3d 7360 afbe 6a44 acbd 637d 52bc
000003e0: 0ff3 94bd 615b db3e 4cb3 453e 6c2f 0e3d
000003f0: 732a ad3d 803a d63d 82c4 803d 6204 f7be

lstm.weight_hh_l1 f4 [256, 64]
0.1041745 -0.039032325 0.15510367 0.082882814 0.124780566 -0.056598295 -0.0011362779 -0.0893018
-0.123762704 -0.2146835 -0.13115461 -0.030234948 -0.19358395 0.06857241 0.04638552 -0.0130604
-0.29035026 0.024236018 -0.16017449 0.1505483 0.046362244 -0.029666545 0.007420714 -0.00292713
0.0045490363 0.023032986 -0.1365718 0.061225064 0.011550365 -0.101640254 0.039699744 0.069029935
0.11751612 -0.0311918 -0.102389835 -0.07350853 -0.0802844 -0.036701847 0.08010715 -0.09002724
0.14452665 0.037237316 -0.0543366 -0.038736217 0.19500242 -0.13929215 -0.12363598 -0.11047433
0.08139877 -0.07946274 0.0015273457 -0.07533377 0.07517262 -0.041340288 0.10120064 -0.0038737888
-0.008816017 -0.06744429 -0.15430519 -0.119653486 0.045512807 0.052690044 0.049547143 0.14998409
0.14380464 0.016708963 0.057888694 0.13512018 -0.23965189 0.22571318 0.17175733 0.07404465
-0.12513307 0.13398491 -0.012001737 -0.015604666 -0.04743321 0.063244544 0.06991313 -0.014776239
-0.09437559 -0.17021912 -0.24974808 -0.012101568 0.044968836 0.073974304 0.010536139 -0.20466289
0.0810158 -0.0018163923 0.16996561 0.055311557 -0.14674613 -0.09123402 0.05142883 0.24368134
-0.08810592 0.044864163 -0.038728878 -0.13394234 0.11582856 -0.025537623 -0.13738742 -0.14935188
0.06315671 0.07158742 -0.21015002 0.12247789 -0.12884428 -0.04561041 0.08825974 0.08239382
-0.08744373 -0.13055508 -0.039498337 0.117605194 0.05769605 -0.09620719 0.04356448 0.08560487
0.120210886 0.09621153 -0.16811755 0.092475735 0.08801372 0.24376185 -0.08339979 -0.20377906
-0.0689787 0.16772617 -0.06213597 0.12871706 -0.04421888 -0.08635934 0.15190707 -0.08690761
0.10952375 0.032211598 0.066424124 -0.17603308 0.072939605 0.08964275 -0.14320861 -0.07275495
0.0043130396 0.03291442 0.17361407 -0.0765762 -0.022609772 -0.109778844 -0.056742895 -0.080416985
-0.45014006 0.12872928 -0.1417349 -0.07807129 -0.00018395217 -0.091248125 0.016984165 -0.1069212
0.023454336 -0.044584755 -0.07447142 0.071079515 -0.019273218 0.03576175 -0.122579016 0.065159135
0.01923902 0.066974215 -0.23936874 -0.12000293 0.072492264 0.01892435 0.043422915 -0.14405826
0.07938514 0.06515055 0.1382884 -0.13122196 -0.06564644 0.051821176 0.068650745 0.058182538
0.004118731 -0.02683745 0.14969881 -0.09948984 0.19587666 -0.011376905 0.028881691 -0.07425492
0.25504458 0.14297865 -0.26847816 0.40016505 0.25994167 -0.15449756 0.09305863 0.055859394
-1.0070899 -0.20095272 -0.13937026 -0.015722703 -0.080988176 0.057358522 0.06277062 0.08511592
-0.0062589874 0.16665727 -0.09396275 -0.0860593 -0.1329738 -0.10032678 -0.031886414 0.40147564
-0.15258531 0.046391744 -0.13698006 -0.06890977 -0.20426275 -0.0022257958 -0.102724254 -0.02110019
-0.3273646 -0.17920874 0.056961287 -0.0069131176 -0.0945725 -0.15623882 -0.088012174 0.4314554
-0.02159921 0.22995897 -0.578267 -0.23787987 0.20135984 -0.0028061706 -0.2306757 -0.40964207
0.11937067 -0.3436597 0.113918446 -0.012250126 -0.1115066 0.055305544 0.0981258 0.04696268
0.11817061 -0.10778578 0.21580683 -0.048553675 -0.019780993 0.25553837 0.04047824 0.34879923
00000000: 7159 d53d 5ce0 1fbd 7fd3 1e3e 77be a93d
00000010: f48c ff3d 9dd3 67bd 29ef 94ba dde3 b6bd
00000020: 4d77 fdbd fed5 5bbe 654d 06be 48af f7bc
00000030: df3a 46be b16f 8c3d befe 3d3d 4afb 55bc
00000040: caa8 94be 9d8a c63c c804 24be 5529 1a3e
00000050: 56e6 3d3d 4107 f3bc 7629 f33b 18d5 3fbb
00000060: 1510 953b acaf bc3c 7ad9 0bbe 22c7 7a3d
00000070: be3d 3d3c c428 d0bd 339c 223d 915f 8d3d
00000080: 4bac f03d f285 ffbc c3b1 d1bd a48b 96bd
00000090: 266c a4bd ad54 16bd 380f a43d 3460 b8bd
000000a0: cbfe 133e 2886 183d 0e90 5ebd dea9 1ebd
000000b0: b7ae 473e 9aa2 0ebe dc34 fdbd 5e40 e2bd
000000c0: 66b4 a63d 5cbd a2bd 3831 c83a 9748 9abd
000000d0: 1af4 993d 6f54 29bd 4842 cf3d 64df 7dbb
000000e0: 0e71 10bc 3b20 8abd 2e02 1ebe e30c f5bd
000000f0: a36b 3a3d 84d1 573d f2f1 4a3d 6e95 193e
00000100: 8641 133e 3ce1 883c b21c 6d3d f25c 0a3e
00000110: 4e67 75be 5b21 673e 27e1 2f3e b9a4 973d
00000120: e222 00be 5733 093e efa2 44bc b7aa 7fbc
00000130: 5349 42bd 5b86 813d 9d2e 8f3d 0a18 72bc
00000140: fd47 c1bd ec4d 2ebe f6bd 7fbe a845 46bc
00000150: 3e31 383d d77f 973d c59f 2c3c 2693 51be
00000160: 9deb a53d 0314 eeba 770b 2e3e 5f8e 623d
00000170: 9e44 16be e7d8 babd 09a7 523d 9a87 793e
00000180: e070 b4bd 7cc3 373d 2ca2 1ebd 2e28 09be
00000190: 8637 ed3d 4734 d1bc 4aaf 0cbe b3ef 18be
000001a0: 4e58 813d 6d9c 923d 9131 57be b0d5 fa3d
000001b0: c1ef 03be fbd1 3abd 86c1 b43d 17be a83d
000001c0: b315 b3bd 3bb0 05be 02c9 21bd feda f03d
000001d0: b152 6c3d 4608 c5bd ab70 323d 9b51 af3d
000001e0: 2031 f63d 8d0a c53d 0227 2cbe eb63 bd3d
000001f0: 8a40 b43d b59c 793e 82cd aabd 75ab 50be
00000200: b444 8dbd 69c0 2b3e 4982 7ebd 68ce 033e
00000210: db1e 35bd 2add b0bd 878d 1b3e 9efc b1bd
00000220: fd4d e03d 4ff0 033d 5f09 883d 0442 34be
00000230: 5c61 953d 9e96 b73d 47a5 12be 8c00 95bd
00000240: 6654 8d3b 45d1 063d e3c7 313e fcd3 9cbd
00000250: 2138 b9bc bbd3 e0bd 3d6b 68bd a9b1 a4bd
00000260: c278 e6be 9cd1 033e f422 11be d7e3 9fbd
00000270: 49e3 40b9 4ce0 babd 6022 8b3c 81f9 dabd
00000280: 4f23 c03c 819e 36bd 7984 98bd 2392 913d
00000290: dee2 9dbc ea7a 123d b50a fbbd 2772 853d
000002a0: 269b 9d3c c729 893d 141d 75be 19c4 f5bd
000002b0: d376 943d 3d07 9b3c 3adc 313d 0284 13be
000002c0: ad94 a23d a76d 853d 799b 0d3e 0d5f 06be
000002d0: a471 86bd 7142 543d c398 8c3d d050 6e3d
000002e0: 6bf6 863b 36da dbbc a54a 193e 54c1 cbbd
000002f0: e493 483e 3366 3abc 4c99 ec3c f712 98bd
00000300: 3495 823e ff68 123e f875 89be 6fe2 cc3e
00000310: 1317 853e 9c34 1ebe 8695 be3d d2cc 643d
00000320: 52e8 80bf 8dc6 4dbe 14b7 0ebe e6cc 80bc
00000330: 21dd a5bd c5f0 6a3d e28d 803d 4151 ae3d
00000340: 3118 cdbb 34a8 2a3e 8b6f c0bd dc3f b0bd
00000350: 492a 08be 2078 cdbd 549b 02bd 378e cd3e
00000360: 533f 1cbe 4505 3e3d 8044 0cbe 9120 8dbd
00000370: 412a 51be a8de 11bb 1861 d2bd 4eda acbc
00000380: 559c a7be 7f82 37be 3d50 693d 6f87 e2bb
00000390: 3aaf c1bd 12fd 1fbe ba3f b4bd b9e7 dc3e
000003a0: d4f0 b0bc 5d7a 6b3e 4e09 14bf c896 73be
000003b0: 4631 4e3e bbe7 37bb 4036 6cbe 9bbc d1be
000003c0: 9c78 f43d 2af4 afbe 134e e93d c1b4 48bc
000003d0: 935d e4bd 1188 623d 2ef6 c83d f05b 403d
000003e0: 6f03 f23d cbbe dcbd 77fc 5c3e 38e0 46bd
000003f0: c00b a2bc edd5 823e 83cc 253d d095 b23e

lstm.bias_ih_l1 f4 [256]
-0.09134321 0.09289038 0.016406473 -0.042540368 -0.031030966 -0.040424407 -0.051598795 0.11499383
-0.0695846 0.21859674 0.060531236 -0.039705854 -0.12200703 -0.0658381 0.06923032 0.08596134
-0.12605745 0.08089753 -0.10496268 0.0990857 0.031611368 -0.1333746 0.088235006 -0.06874752
-0.075141884 0.10602107 0.0045188162 0.11057082 0.21057698 0.07578231 -0.01367812 0.13723028
-0.009053348 0.12533051 0.049095977 0.15031211 0.024270471 -0.083678044 0.012264609 0.07905811
0.015788453 0.037634246 0.035955824 0.17406468 -0.0072283437 -0.08018402 -0.01625351 0.13600968
-0.016899036 -0.081716955 0.08833447 0.12178075 -0.11995916 0.09797494 0.028257439 0.05037657
0.16104129 -0.08419938 -0.004954968 0.057032946 0.0558324 -0.06730977 0.12920219 0.02612559
-0.064932525 0.029580079 0.09415525 -0.04162539 0.05457707 -0.061239038 0.13311285 -0.02204192
0.024767192 0.02040192 0.097043365 0.15779239 0.07637914 -0.04289373 0.052862268 0.11056271
0.05739515 0.14579917 -0.09656159 0.13664731 0.06879699 -0.102913424 0.021470128 -0.085767336
-0.07031819 0.02350994 0.14468959 0.01900838 0.022163037 0.10529549 0.059250686 0.16691628
0.08743477 0.19600816 0.015314175 0.1029478 -0.09166762 -0.048121147 0.10502761 0.03716781
-0.06503846 0.14152478 -0.11024057 -0.0199948 0.08653417 0.026206136 0.0032902658 0.13994966
0.017591374 -0.013514383 0.05223999 0.14009881 0.0935842 -0.10554224 -0.07227277 -0.07492441
0.035551257 0.015925167 -0.016264258 0.0693765 0.06197191 -0.07382908 -0.060193356 -0.06505757
-0.07372291 0.0289142 -0.0016688932 0.091165096 0.10819628 0.023496078 -0.02130753 0.03953006
0.026282543 0.009814634 0.015733533 -0.06071083 0.04513253 0.03398971 -0.050103713 0.01279025
0.00030933128 -0.055993717 -0.007591555 -0.06077263 0.035161525 -0.107159704 0.01665748 -0.06963582
0.0049168775 -0.044810344 -0.13820195 -0.10592684 -0.017642409 -0.11015163 -0.08169804 0.005825946
-0.066799745 -0.047278117 -0.0042329826 0.11061519 -0.031283654 0.09629171 0.112580754 0.036751006
0.013627293 -0.017567504 -0.08213957 0.13609372 -0.0889709 -0.094745286 0.15665881 0.05014257
-0.046347033 -0.09720431 0.12210909 0.024813065 0.102596104 -0.0145737715 0.07946376 -0.035139225
-0.12826435 0.01615019 0.047954068 -0.08401358 -0.1824996 -0.09627453 0.05554202 0.11089326
0.06922372 0.11146184 0.021207137 0.022254268 0.007354699 0.14443989 -0.029201137 0.035470814
0.12476515 0.10690728 0.05089267 0.044475384 0.16130191 -0.02777035 0.061591085 0.07703413
-0.035046373 0.102198906 0.0899704 0.16475521 0.12230762 -0.015105832 0.057185344 0.012594342
-0.00040907177 0.14301477 0.040296998 -0.09792892 0.16161554 0.15514745 -0.008487617 0.03995886
-0.029190425 0.11597098 -0.124298535 0.072392315 -0.069832705 0.1000878 0.06444814 0.03864842
-0.05211898 0.13552155 0.18369205 0.19678214 0.12158664 0.03599728 0.11236457 0.07014267
-0.04839573 -0.04758579 0.15481558 -0.030302588 0.07701039 0.107533336 -0.08679149 -0.08931188
0.16160724 -0.03119537 0.06668738 0.0999274 0.033455465 -0.042642575 0.06774908 0.18860121
00000000: 2612 bbbd 503d be3d de66 863c cf3e 2ebd
00000010: a734 febc 1094 25bd 4259 53bd e381 eb3d
00000020: 5f82 8ebd d3d7 5f3e 9aef 773d 9ba2 22bd
00000030: d2de f9bd 20d6 86bd a0c8 8d3d 800c b03d
00000040: 3415 01be 9bad a53d acf6 d6bd 72ed ca3d
00000050: ec7a 013d 5a93 08be 8eb4 b43d 80cb 8cbd
00000060: fde3 99bd 9321 d93d 9412 943b f472 e23d
00000070: 7ea1 573e c133 9b3d 321a 60bc 1886 0c3e
00000080: 7e54 14bc a456 003e dd18 493d 6beb 193e
00000090: ded2 c63c 655f abbd 80f1 483c 38e9 a13d
000000a0: c956 813c 5e26 1a3d 6a46 133d 033e 323e
000000b0: bedb ecbb 8537 a4bd 1526 85bc 1f46 0b3e
000000c0: d96f 8abc 385b a7bd b4e8 b43d 3068 f93d
000000d0: 26ad f5bd 16a7 c83d 257c e73c aa57 4e3d
000000e0: 02e8 243e b970 acbd 495d a2bb 619b 693d
000000f0: 84b0 643d b4d9 89bd 944d 043e 5505 d63c
00000100: 58fb 84bd ec51 f23c 78d4 c03d 637f 2abd
00000110: 358c 5f3d c9d5 7abd bc4e 083e 4291 b4bc
00000120: 91e4 ca3c ed21 a73c acbe c63d 5494 213e
00000130: ab6c 9c3d 56b1 2fbd 1b86 583d b46e e23d
00000140: 2d17 6b3d 614c 153e 15c2 c5bd 46ed 0b3e
00000150: 70e5 8c3d 46c4 d2bd 1fe2 af3c c9a6 afbd
00000160: fc02 90bd eb97 c03c 8229 143e 76b7 9b3c
00000170: 428f b53c 29a5 d73d d9b0 723d 1aec 2a3e
00000180: 0011 b33d 5db6 483e 4ee8 7a3c 4cd6 d23d
00000190: 3cbc bbbd ae1a 45bd b718 d73d 463d 183d
000001a0: e232 85bd dfeb 103e cfc5 e1bd 23cc a3bc
000001b0: d438 b13d 40ae d63c 80a1 573b f74e 0f3e
000001c0: c91b 903c 6e6b 5dbc 9af9 553d 1076 0f3e
000001d0: 13a9 bf3d 8826 d8bd bf03 94bd f871 99bd
000001e0: 329e 113d 7f75 823c 9f3c 85bc 4415 8e3d
000001f0: 42d6 7d3d b333 97bd 4f8d 76bd e73c 85bd
00000200: 09fc 96bd 79dd ec3c c3be daba c4b4 ba3d
00000210: 0396 dd3d d97a c03c 218d aebc 46ea 213d
00000220: 7d4e d73c 8fcd 203c 9ce3 803c ebab 78bd
00000230: e3dc 383d cb38 0b3d 8d39 4dbd 328e 513c
00000240: be2d a239 ab59 65bd 94c2 f8bb b9ec 78bd
00000250: 8805 103d 8c76 dbbd 4475 883c 3a9d 8ebd
00000260: c21d a13b 0d8b 37bd d084 0dbe 2cf0 d8bd
00000270: d086 90bc 2e97 e1bd 4d51 a7bd 94e7 be3b
00000280: 4ece 88bd b3a6 41bd d5b4 8abb 378a e23d
00000290: 4a23 00bd 9734 c53d bd90 e63d 3988 163d
000002a0: 0245 5f3c bae9 8fbc ca38 a8bd 275c 0b3e
000002b0: 6036 b6bd d109 c2bd 2b6b 203e 4c62 4d3d
000002c0: 63d6 3dbd 0e13 c7bd 5514 fa3d c544 cb3c
000002d0: e81d d23d d4c6 6ebc e5bd a23d 26ee 0fbd
000002e0: bb57 03be 674d 843c 7c6b 443d 500f acbd
000002f0: 2de1 3abe 952b c5bd 0780 633d 011c e33d
00000300: 2ac5 8d3d 1b46 e43d 97ba ad3c 954e b63c
00000310: b0ff f03b 0de8 133e 3937 efbc d849 113d
00000320: df84 ff3d 34f2 da3d d574 503d d22b 363d
00000330: 542c 253e a57e e3bc ef46 7c3d 12c4 9d3d
00000340: c98c 0fbd a94d d13d 6742 b83d 97b5 283e
00000350: 6b7c fa3d 747e 77bc 2e3b 6a3d 8058 4e3c
00000360: af78 d6b9 7772 123e 770e 253d f58e c8bd
00000370: 8b7e 253e f9de 1e3e a50f 0bbc e7ab 233d
00000380: c220 efbc 3182 ed3d 3b90 febd 6c42 943d
00000390: 7304 8fbd d5fa cc3d 63fd 833d ce4d 1e3d
000003a0: b67a 55bd 29c6 0a3e c519 3c3e 4281 493e
000003b0: 6b02 f93d e271 133d 651f e63d f6a6 8f3d
000003c0: 9a3a 46bd 51e9 42bd fa87 1e3e 223d f8bc
000003d0: a0b7 9d3d 703a dc3d bdbf b1bd 26e9 b6bd
000003e0: 5e7c 253e 6f8d ffbc 6593 883d bda6 cc3d
000003f0: 9908 093d fba9 2ebd 08c0 8a3d ad20 413e

lstm.bias_hh_l1 f4 [256]
-0.07683993 -0.10548085 0.00054891844 0.06398886 -0.12344304 0.06883854 -0.08298644 -0.0073487395
-0.115584426 0.051279437 -0.027910313 0.040765636 0.040592294 0.14292023 -0.008760437 0.04897676
-0.026162041 0.073316894 0.016618535 0.025370091 -0.121686034 0.06784417 -0.055213984 -0.073758006
-0.044322904 0.16914222 -0.05900804 0.06825001 0.12779748 -0.05154008 0.05268499 0.121338576
-0.03306209 0.02189826 -0.16337138 -0.03256536 0.02295514 -0.1697949 0.06223593 0.08921785
-0.106215924 -0.085542224 -0.072132304 0.16537945 0.05718835 0.02081816 0.058441818 0.05945214
0.15251046 -0.061073992 0.2948629 -0.040153306 -0.09124683 -0.083830185 0.035212215 0.08238485
0.16659044 -0.090176485 -0.07226042 0.07780036 0.067703 -0.07292675 0.021009255 -0.11188889
-0.024271667 0.09266931 -0.0115119 0.028164685 -0.055985983 -0.038367726 0.086224034 -0.03824773
0.05966421 -0.045791492 -0.022635788 0.04852281 0.01146945 0.011413919 0.11724198 -0.0073517496
0.04266988 0.08531076 -0.11208878 -0.022984771 0.16560654 0.08624693 0.09653139 0.027865926
0.027115129 -0.033446968 0.09578028 0.16010828 -0.018888744 0.05063968 0.028409977 0.049470294
-0.0058989325 0.1134102 0.008246102 -0.0379028 0.033565793 -0.055168726 0.13419408 -0.09988842
0.15497075 0.043060493 -0.0981936 0.02786341 0.009866152 0.054223433 0.04803252 -0.001871805
-0.064125374 0.07086965 0.014121456 0.15479545 0.04520446 0.01672944 0.072098315 0.044942636
-0.018837268 -0.09698103 -0.06090138 0.005728219 -0.04733308 0.03821279 0.11275591 0.12946156
-0.057100877 0.092855655 0.034715846 -0.030307204 -0.093958214 -0.028804393 -0.11176699 -0.11315519
0.00032067642 -0.018952558 -0.01133668 0.019075125 0.04910852 0.079083964 -0.14990163 -0.108892635
0.08182453 0.053936943 0.057548255 0.041070882 -0.043758735 -0.04391476 0.05047408 -0.06308806
0.09403232 -0.103070505 -0.13120568 0.023642292 0.07285979 -0.036585286 0.089530624 -0.005000718
-0.06978185 0.013817657 0.0828884 0.09032454 0.035321075 -0.11866915 -0.013830111 -0.11929668
0.08358529 0.023470812 0.11431379 0.108827725 0.001481587 -0.13061655 0.106088385 0.06112737
-0.10989993 -0.03642935 -0.030698214 0.08258245 0.0855392 0.08552716 -0.08842708 0.0736621
-0.03587344 -0.10912941 -0.061358128 -0.09078692 -0.04987694 -0.017339265 0.09334479 -0.02831061
0.1221522 0.12640637 -0.0979657 -0.006733749 0.15611908 0.11495808 0.15973301 0.15692852
0.14136383 0.19638187 0.101742774 -0.0053490177 0.02790417 0.09917124 -0.0732319 0.021742495
-0.058020066 -0.06271108 0.18893042 0.117839985 0.078223094 0.06873066 -0.035635047 0.07784501
0.073821686 0.1596605 0.025343224 0.060658347 0.029762892 0.09882286 -0.04817704 -0.03908357
0.02322996 0.094012335 -0.11984506 -0.0376121 -0.15185498 0.069886155 0.025674045 0.10192771
0.13834153 0.11907485 -0.010349855 0.02121321 0.25018957 -0.02609879 0.32147107 -0.0030243874
-0.06772423 0.17309712 0.0725599 -0.08296618 -0.058679763 0.03153746 0.034046676 0.1183926
0.260001 0.08650882 0.0241585 0.00862373 0.0030948676 0.059176587 0.040135913 0.016933683
00000000: 415e 9dbd 5806 d8bd 4be5 0f3a 970c 833d
00000010: b4cf fcbd 38fb 8c3d cbf4 a9bd b2cd f0bb
00000020: 87b7 ecbd 630a 523d 2ba4 e4bc def9 263d
00000030: 1b44 263d ae59 123e f087 0fbc db9b 483d
00000040: c751 d6bc 2b27 963d 9823 883c f0d4 cf3c
00000050: 8736 f9bd e2f1 8a3d 0f28 62bd 700e 97bd
00000060: ef8b 35bd 9e33 2d3e 6ab2 71bd a9c6 8b3d
00000070: 58dd 023e b11b 53bd 37cc 573d 5c80 f83d
00000080: 1d6c 07bd fb63 b33c d44a 27be 4163 05bd
00000090: 6b0c bc3c b7de 2dbe 1aeb 7e3d d9b7 b63d
000000a0: bc87 d9bd c330 afbd 1aba 93bd 3b59 293e
000000b0: 553e 6a3d d98a aa3c b060 6f3d 1684 733d
000000c0: b42b 1c3e b928 7abd 45f8 963e cb77 24bd
000000d0: 9edf babd 29af abbd af3a 103d 63b9 a83d
000000e0: af96 2a3e 73ae b8bd 45fd 93bd cc55 9f3d
000000f0: dfa7 8a3d 9f5a 95bd 9a1b ac3c 0126 e5bd
00000100: 60d5 c6bc 68c9 bd3d 699c 3cbc a0b9 e63c
00000110: 8f51 65bd 7a27 1dbd 3a96 b03d a7a9 1cbd
00000120: 7562 743d dc8f 3bbd b06e b9bc dbbf 463d
00000130: 5cea 3b3c 7201 3b3c 901c f03d f2e6 f0bb
00000140: 9dc6 2e3d 68b7 ae3d cd8e e5bd 8f4a bcbc
00000150: c394 293e 3ba2 b03d 40b2 c53d 1547 e43c
00000160: 8c20 de3c b0ff 08bd 7428 c43d 6df3 233e
00000170: 91bc 9abc 8e6b 4f3d 0abc e83c 5da1 4a3d
00000180: d54b c1bb 9b43 e83d a91a 073c f73f 1bbd
00000190: 497c 093d 9af8 61bd 2c6a 093e 4d92 ccbd
000001a0: a7b0 1e3e 3360 303d ba19 c9bd ce41 e43c
000001b0: a4a5 213c 6419 5e3d bfbd 443d 5b57 f5ba
000001c0: 2a54 83bd 1b24 913d ae5d 673c b382 1e3e
000001d0: 5028 393d 2e0c 893c 48a8 933d c515 383d
000001e0: 9d50 9abc fe9d c6bd ba73 79bd c9b3 bb3b
000001f0: 55e0 41bd 0485 1c3d 92ec e63d 9291 043e
00000200: 9ce2 69bd 1b2b be3d 3432 0e3d d046 f8bc
00000210: 2a6d c0bd 31f7 ebbc 17e6 e4bd e9bd e7bd
00000220: 7620 a839 6542 9bbc 7bbd 39bc 7043 9c3c
00000230: 0426 493d c6f6 a13d d07f 19be 1a03 dfbd
00000240: 9f93 a73d fcec 5c3d b8b7 6b3d f139 283d
00000250: 5c3c 33bd f7df 33bd e9bd 4e3d 5034 81bd
00000260: 0494 c03d a116 d3bd c85a 06be 7bad c13c
00000270: 8337 953d 74da 15bd d55b b73d 10dd a3bb
00000280: c9e9 8ebd 7463 623c 65c1 a93d 13fc b83d
00000290: d5ac 103d d008 f3bd b197 62bc d151 f4bd
000002a0: c42e ab3d dc45 c03c 591d ea3d 12e1 de3d
000002b0: cf31 c23a 58c0 05be de44 d93d b160 7a3d
000002c0: 3713 e1bd f136 15bd d27a fbbc fd20 a93d
000002d0: 2d2f af3d dd28 af3d 4219 b5bd 28dc 963d
000002e0: 07f0 12bd 3d7f dfbd a952 7bbd 7eee b9bd
000002f0: c34b 4cbd 130b 8ebc 8e2b bf3d a7eb e7bc
00000300: ef2a fa3d ac70 013e 3ea2 c8bd c8a6 dcbb
00000310: aedd 1f3e 246f eb3d 0d91 233e dfb1 203e
00000320: aec1 103e 5418 493e 845e d03d d046 afbb
00000330: 4997 e43c 4b1a cb3d 9bfa 95bd 511d b23c
00000340: 73a6 6dbd ab6e 80bd fa76 413e 1756 f13d
00000350: 6e33 a03d a9c2 8c3d 0ef6 11bd 346d 9f3d
00000360: d32f 973d 0b7e 233e 989c cf3c e374 783d
00000370: 4fd1 f33c a463 ca3d 4a55 45bd 1816 20bd
00000380: c24c be3c 8a89 c03d 5471 f5bd 250f 1abd
00000390: df7f 1bbe 7920 8f3d 6052 d23c 7abf d03d
000003a0: 67a9 0d3e 84dd f33d 7092 29bc 53c7 ad3c
000003b0: d918 803e 21cd d5bc db97 a43e cd34 46bb
000003c0: 00b3 8abd 5f40 313e 499a 943d 2cea a9bd
000003d0: 315a 70bd 6c2d 013d 8774 0b3d d277 f23d
000003e0: da1e 853e 892b b13d 0ce8 c53c 8c4a 0d3c
000003f0: 43d3 4a3b 2663 723d 8e65 243d 82b8 8a3c
